Number_10/MLP_net.pth (torch_old, 342106 bytes, 36 tensors)

weight f4 [64, 784]
0.00092668086 -0.01684217 0.02126908 0.03524187 0.027704697 0.0042545013 0.033632394 0.0336049
-0.03429457 -0.0002538897 0.016703404 -0.012764083 0.01242697 -0.04480734 -0.010895209 -0.03449132
-0.016678512 0.0015833601 -0.03007237 -0.0150076505 -0.030815428 -0.0049404 -0.0026488528 -0.034561444
-0.031959694 0.0026527382 0.006051928 -0.03454506 0.034724038 -0.006685499 -0.032225918 -0.020248324
0.017133126 0.004004825 -0.057098534 -0.11117293 -0.04759189 -0.062202636 0.046325568 0.062981874
-0.016932696 0.026359096 0.18209441 0.14009607 0.035236213 0.025083132 0.018037183 0.020887593
-0.09246871 -0.16567148 -0.087130256 -0.04811535 -0.0317389 0.026911829 -0.01758933 -0.034578215
0.022061814 0.021460675 -0.030773347 -0.10383873 -0.14266875 -0.0045198966 -0.0208048 -0.07273309
-0.15723532 -0.2941937 -0.15185787 -0.03533393 -0.08957321 -0.02535494 -0.05860015 0.03918605
0.035547297 -0.04290862 0.012905344 0.0031910213 0.19373183 0.22092256 0.29025465 -0.06746185
-0.15158725 -0.13447644 -0.010788228 0.022603355 -0.018383324 -0.031613685 0.18260652 -0.05066093
0.023667166 0.24640934 0.10201879 -0.026490945 -0.07389759 -0.15139756 -0.15960094 -0.106995486
-0.041062415 -0.08540495 -0.084885694 0.005407119 -0.09569961 -0.050874226 0.013252131 -0.002592904
7.10984e-05 0.003757123 0.103573985 0.0044891695 0.029079158 -0.09616904 -0.24577048 -0.020496517
-0.023339916 0.03050974 0.21233231 0.18362346 0.15793064 0.050358564 -0.0393503 -0.0753127
-0.09040244 -0.11410232 -0.08901316 -0.04743184 -0.08544732 -0.007318409 0.04210623 0.06389675
-0.033043966 0.0039408635 0.040959794 -0.030427285 -0.13209562 0.051435694 0.053063374 -0.06629762
-0.03269787 0.13831984 0.03593172 -0.07780095 0.0049089156 0.024188533 -0.0038076842 0.02153918
-0.0106277475 0.07727836 0.15036453 0.035222545 -0.06320062 -0.10737145 -0.072787456 -0.02356804
-0.03641844 0.0071175043 -0.022212608 0.052711986 0.044084657 0.13049133 0.23523727 0.09465602
0.06045487 -0.11068021 -0.019392764 0.0667615 0.07693076 0.16528028 -0.07113712 -0.079742216
-0.022441015 -0.049695224 -0.29855105 0.03479827 0.2118472 0.20545004 0.09045755 0.064953074
0.04650788 -0.09220658 -0.13489686 0.041271117 0.04292981 0.09265513 0.08993669 0.011665744
-0.060956687 -0.04101488 0.10782837 0.13784286 0.16054754 0.008448421 -0.026686335 0.12527917
0.17394683 0.11482593 0.0381467 0.16105874 -0.041703433 -0.2630166 -0.38569185 0.11835188
0.06275123 0.16397381 0.11000837 -0.04125207 -0.0074793566 0.035192776 -0.048711427 0.13950144
0.04059676 0.052422203 0.08409585 0.061131425 -0.042807173 -0.11957563 -0.02805901 0.0029751998
0.04226397 -0.038684305 -0.06325529 0.037569724 0.055790093 0.13515255 -0.038488925 0.05334307
-0.079098545 -0.26629156 -0.05248551 0.03664236 0.020029645 0.03820774 0.044297643 0.079981826
0.030604513 -0.015684491 0.0015755327 0.09054991 0.037492987 0.08908807 -0.08008579 -0.06885287
-0.18928151 -0.21736738 -0.09268502 -0.05725653 -0.19749756 -0.07233704 -0.026137711 -0.06656937
-0.013110934 -0.020153496 0.031188203 0.17623691 0.019557737 -0.12429359 0.062865764 0.043052357
00000000: 80ec 723a 97f8 89bc 7e3c ae3c c759 103d
00000010: f6f4 e23c 5869 8b3b 1fc2 093d 4ba5 093d
00000020: 7778 0cbd 801c 85b9 94d5 883c 7220 51bc
00000030: 7d9a 4b3c e787 37bd d281 32bc c546 0dbd
00000040: 60a1 88bc c088 cf3a 555a f6bc a6e2 75bc
00000050: a370 fcbc 14e3 a1bb 6098 2dbb 4d90 0dbd
00000060: 2be8 02bd 90d9 2d3b 404f c63b 1f7f 0dbd
00000070: cb3a 0e3d 0812 dbbb 53ff 03bd d0df a5bc
00000080: c55a 8c3c e83a 833b 27e0 69bd a2ae e3bd
00000090: b7ef 42bd 31c8 7ebd e1bf 3d3d a4fc 803d
000000a0: 70b6 8abc 08ef d73c f576 3a3e 5875 0f3e
000000b0: d953 103d 247b cd3c b7c2 933c 751c ab3c
000000c0: 3c60 bdbd c9a5 29be 5971 b2bd 9a14 45bd
000000d0: a600 02bd 3276 dc3c 8017 90bc e3a1 0dbd
000000e0: faba b43c 4cce af3c 6318 fcbc 66a9 d4bd
000000f0: c217 12be a41b 94bb d46e aabc 16f5 94bd
00000100: 4c02 21be 8fa0 96be a180 1bbe 50ba 10bd
00000110: 2972 b7bd 2ab5 cfbc b606 70bd 8d81 203d
00000120: 0b9a 113d f3c0 2fbd f070 533c 7420 513b
00000130: a361 463e 8639 623e 429c 943e 7029 8abd
00000140: b039 1bbe 31b4 09be 1cc1 30bc ac2a b93c
00000150: a098 96bc 5a7d 01bd 34fd 3a3e d681 4fbd
00000160: a5e1 c13c bb52 7c3e 3aef d03d 8a03 d9bc
00000170: 9f57 97bd f607 1bbe 6e6e 23be 7320 dbbd
00000180: 1031 28bd cae8 aebd 8dd8 adbd 342e b13b
00000190: 28fe c3bd 7e61 50bd 771f 593c b6ed 29bb
000001a0: aa1a 9538 103a 763b 991e d43d e219 933b
000001b0: 6a37 ee3c 46f4 c4bd 42ab 7bbe 50e8 a7bc
000001c0: 5a33 bfbc 90ef f93c a46d 593e ca07 3c3e
000001d0: 92b8 213e c844 4e3d c82d 21bd 8b3d 9abd
000001e0: ea24 b9bd 7aae e9bd 884c b6bd e447 42bd
000001f0: 01ff aebd 44cf efbb 9577 2c3d 4ddc 823d
00000200: 1c59 07bd 5c22 813b 75c5 273d a442 f9bc
00000210: 1344 07be 3cae 523d fb58 593d 0cc7 87bd
00000220: 34ee 05bd b7a3 0d3e 242d 133d 1b56 9fbd
00000230: f8da a03b 0827 c63c 578a 79bb ef72 b03c
00000240: 0120 2ebc 1e44 9e3d 29f9 193e 8445 103d
00000250: 546f 81bd 90e5 dbbd 9711 95bd c311 c1bc
00000260: 812b 15bd f439 e93b 37f7 b5bc 86e8 573d
00000270: 1d92 343d 859f 053e 0ae2 703e 04db c13d
00000280: 879f 773d 4eac e2bd 93dd 9ebc 41ba 883d
00000290: e08d 9d3d 3c3f 293e 57b0 91bd e34f a3bd
000002a0: 38d6 b7bc 388d 4bbd afdb 98be a188 0e3d
000002b0: 79ee 583e 7f61 523e cf41 b93d 1e06 853d
000002c0: 0c7f 3e3d ced6 bcbd 6722 0abe e70b 293d
000002d0: 2bd7 2f3d f9c1 bd3d ba30 b83d ad21 3f3c
000002e0: b8ad 79bd 38ff 27bd 1fd5 dc3d ae26 0d3e
000002f0: 9366 243e 3f6b 0a3c 4d9d dabc 2f49 003e
00000300: 1e1f 323e db29 eb3d b73f 1c3d 95ec 243e
00000310: 38d1 2abd 1daa 86be 6779 c5be 7862 f23d
00000320: b883 803d c0e8 273e 114c e13d eef7 28bd
00000330: 6415 f5bb 4d26 103d a285 47bd 77d9 0e3e
00000340: ca48 263d aab8 563d 723a ac3d f264 7a3d
00000350: 9356 2fbd 11e4 f4bd 02dc e5bc 92fb 423b
00000360: fc1c 2d3d 6f73 1ebd fd8b 81bd b6e2 193d
00000370: 2784 643d 6e65 0a3e 90a6 1dbd 437e 5a3d
00000380: 6bfe a1bd 5e57 88be 0cfb 56bd 4d16 163d
00000390: 3615 a43c b87f 1c3d 7271 353d 83cd a33d
000003a0: 51b6 fa3c c37c 80bc 1b82 ce3a 3b72 b93d
000003b0: 3f92 193d ce73 b63d 0504 a4bd bc02 8dbd
000003c0: 03d3 41be 8e95 5ebe a5d1 bdbd d385 6abd
000003d0: cd3c 4abe 7125 94bd c11e d6bc 8655 88bd
000003e0: 3ecf 56bc f218 a5bc 677e ff3c 7377 343e
000003f0: 8c37 a03c a38d febd c4bf 803d ab57 303d

bias f4 [64]
0.10986696 0.04735902 -0.035844207 0.10524187 -0.11289797 0.14224954 0.11998217 -0.0023935249
0.0970179 0.07135732 -0.029288104 -0.06459223 0.20854454 0.008594018 -0.0026442725 -0.098167636
0.07760621 0.01877359 -0.06370111 0.0954056 0.09029113 0.11009138 0.12141434 -0.13664438
0.10004078 0.039747644 -0.009261696 -0.011208689 0.024074547 -0.08029774 0.053541187 0.090975486
0.028554793 -0.07270513 -0.035750635 0.11987602 -0.004005619 -0.08944739 0.0447782 -0.052021198
-0.084216766 -0.08704447 0.09702852 0.01827692 0.09523757 -0.061653834 0.11616216 -0.13803767
0.098324485 -0.12922119 -0.16423202 -0.061145537 0.057998914 -0.043013137 -0.042542595 -0.115520954
0.046330854 -0.1141387 0.03241234 0.049847234 0.13208051 0.08761416 -0.15431434 0.13395926
00000000: ee01 e13d 88fb 413d 60d1 12bd 0d89 d73d
00000010: 0d37 e7bd dda9 113e 36b9 f53d afdc 1cbb
00000020: 52b1 c63d c923 923d 9bed efbc ee48 84bd
00000030: b38c 553e edcd 0c3c 884b 2dbb 1d0c c9bd
00000040: 01f0 9e3d 12cb 993c ba75 82bd 0364 c33d
00000050: 8eea b83d 9777 e13d 15a8 f83d 81ec 0bbe
00000060: 2ee2 cc3d 6dce 223d 5ebe 17bc a6a4 37bc
00000070: fc37 c53c 2473 a4bd 014e 5b3d 5b51 ba3d
00000080: beeb e93c 6de6 94bd 426f 12bd 8f81 f53d
00000090: 9141 83bb 3130 b7bd 5969 373d 2e14 55bd
000000a0: d779 acbd 5f44 b2bd e4b6 c63d 7bb9 953c
000000b0: ea0b c33d bb88 7cbd 6de6 ed3d bf59 0dbe
000000c0: 595e c93d 8f52 04be 702c 28be be73 7abd
000000d0: 4590 6d3d 8b2e 30bd 2541 2ebd 4096 ecbd
000000e0: 6cc5 3d3d 8dc1 e9bd cdc2 043d 9d2c 4c3d
000000f0: 1d40 073e 0d6f b33d 9404 1ebe 9e2c 093e

weight f4 [64]
1.1118017 1.118178 0.9985326 0.98043317 0.9319025 0.87880117 1.0210024 1.0507392
0.9715072 1.2129673 1.1010327 1.0657176 0.7875253 0.8380792 1.0080851 1.0259199
0.86661184 0.92272604 0.9843395 0.8094521 0.9978852 0.97168815 1.0426857 0.8005843
1.1179736 1.019064 1.1034416 0.87330025 1.0217962 1.0833151 0.8256662 0.8923309
1.0093288 1.0250494 0.75044435 1.0112417 0.8532733 0.5857431 1.1567262 1.0191522
0.9044279 0.8376811 0.99723905 1.1491874 0.93526745 0.9210208 0.96960497 1.080212
0.9034253 0.76797414 0.96127754 0.9933118 1.1665875 1.205103 0.9475797 1.0076351
0.8736843 0.80134445 1.053282 0.9923192 1.2023388 0.89453477 0.8763613 1.1758214
00000000: 854f 8e3f 7520 8f3f d59f 7f3f abfd 7a3f
00000010: 2a91 6e3f 1df9 603f 35b0 823f 9f7e 863f
00000020: b2b4 783f 8342 9b3f a4ee 8c3f 6f69 883f
00000030: 429b 493f 5c8c 563f ef08 813f 5851 833f
00000040: 46da 5d3f c637 6c3f acfd 7b3f 4138 4f3f
00000050: 6875 7f3f 8ec0 783f ba76 853f 18f3 4c3f
00000060: c219 8f3f b070 823f 933d 8d3f 9b90 5f3f
00000070: 38ca 823f 12aa 8a3f dc5e 533f cc6f 643f
00000080: b031 813f d234 833f 1f1d 403f 5e70 813f
00000090: 1e70 5a3f 43f3 153f 9b0f 943f 9473 823f
000000a0: 9688 673f 4572 563f 0f4b 7f3f 9318 933f
000000b0: b06d 6f3f 05c8 6b3f 0838 783f 6344 8a3f
000000c0: e146 673f f499 443f 4916 763f af49 7e3f
000000d0: bd52 953f d140 9a3f 9594 723f 30fa 803f
000000e0: c6a9 5f3f e924 4d3f f2d1 863f a208 7e3f
000000f0: 3de6 993f 3b00 653f 3759 603f 5181 963f

bias f4 [64]
-0.051359728 0.107441306 0.071153395 0.1569157 0.0636447 0.16063173 0.10480834 0.20799609
0.0267787 0.087462954 -0.30984172 -0.055241197 0.18143989 -0.10991238 0.18373784 0.11857897
0.012616335 0.17734389 0.036289968 0.12619916 0.036402263 0.14916019 -0.12915798 -0.049267914
0.043065153 0.07173804 0.016468516 -0.2203297 -0.03855692 0.03025393 0.1347754 0.19069712
0.26489252 -0.0402701 -0.059782427 -0.1822486 0.04496353 0.026597744 0.24291499 0.2434058
-0.16706257 -0.05051964 0.13416366 -0.03998832 -0.21355757 0.036558423 0.12848645 -0.011390144
0.13607015 0.07518817 0.011786424 0.25283772 -0.119684495 0.07212868 -0.045211583 0.01711335
0.2822763 -0.11648799 0.21822318 0.013306694 0.011360291 0.1069308 -0.14745963 0.04235987
00000000: 945e 52bd 300a dc3d dfb8 913d 82ae 203e
00000010: 2758 823d a57c 243e c1a5 d63d edfc 543e
00000020: 015f db3c c71f b33d 93a3 9ebe 9844 62bd
00000030: 61cb 393e be19 e1bd c625 3c3e 88d9 f23d
00000040: bfb4 4e3c a399 353e caa4 143d 5a3a 013e
00000050: 8a1a 153d 73bd 183e fd41 04be 27cd 49bd
00000060: 1665 303d 65eb 923d fbe8 863c 1c9e 61be
00000070: dced 1dbd 17d7 f73c 9002 0a3e 1b46 433e
00000080: fe9f 873e 43f2 24bd 6bde 74bd 619f 3abe
00000090: ae2b 383d 83e3 d93c b5be 783e 5f3f 793e
000000a0: 7312 2bbe afed 4ebd 3362 093e cbca 23bd
000000b0: d6ae 5abe 49be 153d f491 033e ba9d 3abc
000000c0: f955 0b3e 41fc 993d d81b 413c f273 813e
000000d0: 251d f5bd 34b8 933d c82f 39bd 4c31 8c3c
000000e0: 8586 903e 4191 eebd e675 5f3e 5204 5a3c
000000f0: 8420 3a3c 89fe da3d a8ff 16be 8b81 2d3d

running_mean f4 [64]
1.6482146 0.9444387 0.69359547 2.3416102 0.078788966 1.253838 0.8969854 0.87729317
1.2405394 0.2161065 0.5983408 6.897038e-09 2.509118 1.6032847 0.18624856 0.25253704
2.07753 1.8832706 0.7291197 2.7545886 0.23273541 0.89277446 0.6619904 0.07423487
1.2027003 0.66405314 0.29892135 0.126303 0.36339152 2.6192122e-08 3.0247562 1.4155544
1.1824634 0.32721835 0.26995623 0.87386155 2.643345 0.030318985 0.8171243 1.3423966
4.545549e-08 0.86262685 1.7936788 0.3428527 0.5089636 1.2911476e-08 3.4816597 0.27125943
4.3894715 0.00023303906 2.3973014e-06 0.6229355 0.96492755 1.1211889 2.3181064 0.04870446
2.0472226 0.07711746 2.413504 0.47272342 0.44634306 1.8589188 0.06936713 0.7178602
00000000: b2f8 d23f bcc6 713f 798f 313f f1dc 1540
00000010: 1c5c a13d c37d a03f d6a0 653f 4996 603f
00000020: ffc9 9e3f 064b 5d3e dd2c 193f fdfa ec31
00000030: 6495 2040 6f38 cd3f f1b7 3e3e 894c 813e
00000040: 40f6 0440 030f f13f 97a7 3a3f 2e4b 3040
00000050: 3152 6e3e de8c 643f 3478 293f 7408 983d
00000060: 15f2 993f 63ff 293f 380c 993e 9355 013e
00000070: 740e ba3e 16fd e032 9b95 4140 e330 b53f
00000080: f65a 973f 2a89 a73e b437 8a3e 64b5 5f3f
00000090: 912c 2940 855f f83c 0f2f 513f a7d3 ab3f
000000a0: d73a 4333 1dd5 5c3f 4497 e53f 648a af3e
000000b0: 704b 023f 46d1 5d32 83d3 5e40 84e2 8a3e
000000c0: 8d76 8c40 f25b 7439 53e1 2036 b378 1f3f
000000d0: 7e05 773f 1e83 8f3f db5b 1440 547e 473d
000000e0: b205 0340 c2ef 9d3d d976 1a40 ce08 f23e
000000f0: 1487 e43e 0df1 ed3f 5b10 8e3d b0c5 373f

running_var f4 [64]
1.5698442 1.5860366 0.8120028 3.4291334 0.15103963 1.3401726 1.3257065 1.4354522
1.354914 0.29711092 0.7930689 3.987611e-06 1.9850982 1.8924533 0.34782165 0.5637301
1.8877364 2.0850127 1.2459631 2.6571121 0.30883932 1.1796696 0.9255371 0.14275467
1.1939652 1.1568782 0.4663612 0.17480157 0.5265807 3.9899655e-06 2.7765217 1.0311916
2.5361059 0.59751177 0.37521693 1.5766597 2.071519 0.051830787 0.8924203 1.9412874
3.9929023e-06 0.7760697 2.226754 0.4922851 0.5979418 3.9883653e-06 2.8319914 0.57271016
2.6748226 6.767914e-05 4.5911775e-06 0.84559387 1.5085937 1.4533821 2.7471862 0.10107663
2.1123004 0.116017945 2.0248082 0.6192998 0.83134097 2.068267 0.11423224 1.33162
00000000: a8f0 c83f 3f03 cb3f 6adf 4f3f ec76 5b40
00000010: 22aa 1a3e c78a ab3f c0b0 a93f e6bc b73f
00000020: d26d ad3f ec1e 983e 9006 4b3f 51cd 8536
00000030: b317 fe3f e93b f23f ae15 b23e 9e50 103f
00000040: 59a1 f13f d970 0540 b87b 9f3f 200e 2a40
00000050: 3020 9e3e 6aff 963f 00f0 6c3f 482e 123e
00000060: dad3 983f 9614 943f e5c6 ee3e 2fff 323e
00000070: fecd 063f 8be1 8536 88b2 3140 16fe 833f
00000080: 8f4f 2240 88f6 183f 6f1c c03e fccf c93f
00000090: c493 0440 854c 543d a875 643f 1b7c f83f
000000a0: c5fa 8536 81ac 463f 2383 0e40 cb0c fc3e
000000b0: b712 193f ccd3 8536 593f 3540 229d 123f
000000c0: 4b30 2b40 f6ee 8d38 ea0d 9a36 d778 583f
000000d0: 9919 c13f 6d08 ba3f e6d1 2f40 4401 cf3d
000000e0: ee2f 0740 d19a ed3d 7596 0140 6f8a 1e3f
000000f0: c3d2 543f 7d5e 0440 98f2 e93d 8672 aa3f

weight f4 [128, 64]
-0.014795955 0.17057344 0.2700664 -0.1965145 -0.07856313 0.09182513 0.2587766 0.052718513
0.12031771 0.3403736 -0.022662353 -0.054198403 -0.06435801 -0.056959998 0.122388095 -0.1939104
0.16967112 -0.07158957 -0.08455057 0.19312628 -0.19285905 0.0688157 0.020491451 -0.07728466
0.17425533 0.010234998 -0.088592 -0.025690291 0.16136613 0.05197424 -0.13448536 -0.11383961
-0.39843518 -0.14897732 -0.18037656 -0.33334067 -0.22334464 0.12863496 0.012609065 0.103083245
-0.025190277 0.029421564 -0.3430067 -0.12667966 0.047705658 0.166728 -0.17991516 0.013033795
-0.20172067 -0.041315515 0.12458053 -0.1670447 -0.0539597 0.07089885 -0.018602025 0.07349179
0.32396555 -0.06984998 -0.013327699 0.14794284 -0.0022750378 -0.06705129 -0.34919602 -0.087232865
0.32401252 -0.22879042 -0.044621233 -0.29048488 0.09614643 0.0707306 -0.062205177 0.10546687
0.17907657 0.078527905 0.06901293 0.0043640826 -0.024970206 0.18370554 0.18652333 -0.14682612
0.01101929 0.010663111 -0.050929345 0.057116322 -0.06830469 -0.036471907 0.0048882854 -0.04040343
0.11841549 -0.20062807 0.122232035 -0.030724946 0.2711888 -0.03649244 -0.15803002 -0.29507327
-0.083266586 -0.1643431 -0.1967965 -0.093283 -0.12150997 -0.32140002 -0.38527548 0.0071149794
0.033128753 0.0061509786 -0.31372142 -0.26760352 -0.030580254 0.056871712 0.11046225 -0.013609275
-0.28766304 0.08318592 -0.16310954 -0.16454533 0.089991435 -0.1209294 -0.027998004 0.04892283
-0.018942418 0.14429845 -8.4138366e-05 -0.20922786 -0.25044748 -0.22305897 -0.052625448 -0.037724018
-0.33487192 0.08420342 -0.0427922 -0.21223298 -0.17470309 -0.07571238 -0.012913072 0.0075439857
-0.14567651 0.041652318 0.097793214 -0.07279731 0.05722088 -0.011453726 -0.20213376 0.2815299
0.0797915 -0.116764076 0.030235155 -0.009519179 -0.15462081 -0.041460875 0.11695599 -0.05268349
0.02856515 0.15598504 0.0191144 0.030678926 -0.14082748 0.0821831 -0.28786072 0.13953483
-0.017292041 0.21203765 -0.1166122 -0.07914366 0.08353139 -0.07593582 0.16206694 -0.08034038
0.010284341 0.19894007 -4.6087433e-05 -0.18604504 0.2344787 -0.01735362 -0.08441413 -0.020055212
-0.08780808 0.14897874 0.19857883 -0.22534373 0.02156738 0.029320402 0.06830095 0.07087655
0.16606404 -0.28484192 -0.137065 -0.0755941 0.26640812 0.08313734 0.017373843 0.22368515
0.036884062 -0.21013126 -0.2484464 -0.18971264 0.06724124 0.109431036 -0.06484274 -0.16529308
0.26620093 0.19871798 -0.19459423 0.1253363 0.03301782 0.20695613 -0.07922748 0.25836155
0.15289706 -0.10156766 0.084234394 0.20430109 -0.21374507 0.14098358 0.037480745 0.09751808
0.18363431 -0.06038732 -0.19677553 -0.0023305467 -0.1568283 0.08335356 0.026402608 0.15176173
-0.27663472 -0.07117894 0.21832079 -0.21285701 -0.11260116 -0.15155667 0.2609808 0.17095587
0.02331871 -0.039202746 0.16974206 0.0048676557 -0.027936514 0.0040123225 -0.088564634 0.024071308
0.026439209 -0.16534989 0.028787604 0.24618644 0.12234827 0.097555034 0.028140284 0.07724797
-0.09842367 0.09404826 -0.026251696 0.014705475 -0.2484035 0.036651965 0.016712574 -0.111365564
00000000: bc6a 72bc ceaa 2e3e 2546 8a3e 193b 49be
00000010: b5e5 a0bd d00e bc3d 5e7e 843e 5eef 573d
00000020: 2269 f63d 7345 ae3e 66a6 b9bc 25ff 5dbd
00000030: 22ce 83bd e34e 69bd 9ca6 fa3d 7390 46be
00000040: 44be 2d3e 8d9d 92bd d928 adbd e5c2 453e
00000050: d87c 45be 3fef 8c3d b0dd a73c 6b47 9ebd
00000060: fd6f 323e b1b0 273c b96f b5bd 7274 d2bc
00000070: 2a3d 253e f1e2 543d 88b6 09be be24 e9bd
00000080: b2ff cbbe 838d 18be a2b4 38be a1ab aabe
00000090: 75b4 64be e2b8 033e 4096 4e3c 4f1d d33d
000000a0: d75b cebc 7e05 f13c 939e afbe 50b8 01be
000000b0: 0267 433d bfba 2a3e ae3b 38be b38b 553c
000000c0: dd8f 4ebe 753a 29bd 1424 ff3d c40d 2bbe
000000d0: d904 5dbd 6b33 913d 4663 98bc dd82 963d
000000e0: d0de a53e 820d 8fbd 6c5c 5abc 547e 173e
000000f0: cd18 15bb 3052 89bd d2c9 b2be 25a7 b2bd
00000100: f8e4 a53e 0948 6abe c1c4 36bd 6fba 94be
00000110: 6be8 c43d 34db 903d dbca 7ebd 04ff d73d
00000120: d95f 373e 3dd3 a03d a756 8d3d 9400 8f3b
00000130: 518e ccbc 4e1d 3c3e f9ff 3e3e 9659 16be
00000140: 418a 343c 54b4 2e3c 4a9b 50bd cef2 693d
00000150: 54e3 8bbd 9163 15bd e92d a03b 117e 25bd
00000160: d283 f23d 7271 4dbe ca54 fa3d e2b2 fbbc
00000170: 42d9 8a3e 1979 15bd 9fd2 21be d813 97be
00000180: ac87 aabd 8f49 28be 0685 49be 280b bfbd
00000190: 38da f8bd 8b8e a4be d442 c5be c624 e93b
000001a0: 04b2 073d 268e c93b 18a0 a0be 5403 89be
000001b0: 7183 fabc 50f2 683d 083a e23d 70f9 5ebc
000001c0: 9248 93be 615d aa3d 3006 27be 927e 28be
000001d0: 6e4d b83d d5a9 f7bd 125c e5bc 4e63 483d
000001e0: 212d 9bbc f9c2 133e 7173 b0b8 d43f 56be
000001f0: a73a 80be 9269 64be c88d 57bd 8084 1abd
00000200: 5574 abbe d872 ac3d e046 2fbd 9a53 59be
00000210: 5ee5 32be 180f 9bbd 5991 53bc 8a33 f73b
00000220: 392c 15be 9f9b 2a3d cf47 c83d c216 95bd
00000230: 7160 6a3d 69a8 3bbc 27fc 4ebe b024 903e
00000240: ba69 a33d 0122 efbd b7af f73c 55f6 1bbc
00000250: eb54 1ebe e1d2 29bd 9f86 ef3d a5ca 57bd
00000260: 7601 ea3c 8bba 1f3e cd95 9c3c 5f52 fb3c
00000270: 1435 10be 9d4f a83d 7b62 93be 38e2 0e3e
00000280: 0aa8 8dbc 6620 593e 61d2 eebd 1216 a2bd
00000290: 8112 ab3d 3d84 9bbd e0f4 253e 7f89 a4bd
000002a0: a77f 283c f2b6 4b3e 014e 41b8 9782 3ebe
000002b0: 2f1b 703e 2e29 8ebc 51e1 acbd d44a a4bc
000002c0: b9d4 b3bd e28d 183e 4058 4b3e 82c0 66be
000002d0: 13ae b03c 5731 f03c 5ee1 8b3d ba27 913d
000002e0: b10c 2a3e cdd6 91be c45a 0cbe 14d1 9abd
000002f0: a566 883e e943 aa3d 9753 8e3c b80d 653e
00000300: be13 173d a62c 57be bc68 7ebe 0844 42be
00000310: c6b5 893d 611d e03d 45cc 84bd 9742 29be
00000320: 7d4b 883e ba7c 4b3e b643 47be 2958 003e
00000330: b23d 073d 4fec 533e 0442 a2bd f747 843e
00000340: 0c91 1c3e b502 d0bd 1583 ac3d 4e34 513e
00000350: fddf 5abe 005e 103e 6985 193d 8fb7 c73d
00000360: a20a 3c3e b258 77bd 867f 49be 16bc 18bb
00000370: 9997 20be 45b5 aa3d 484a d83c 6d67 1b3e
00000380: 11a3 8dbe 44c6 91bd 7c8f 5f3e 30f7 59be
00000390: 709b e6bd ac31 1bbe 479f 853e 0e0f 2f3e
000003a0: e106 bf3c 0f93 20bd ddd0 2d3e db80 9f3b
000003b0: 1edb e4bc cd79 833b 6061 b5bd 3131 c53c
000003c0: 0a97 d83c 7b51 29be fbd3 eb3c 4c18 7c3e
000003d0: bb91 fa3d efca c73d 7486 e63c 2f34 9e3d
000003e0: 5992 c9bd 609c c03d cc0d d7bc 3cef 703c
000003f0: 7d5d 7ebe 5f20 163d cfe8 883c a113 e4bd

bias f4 [128]
0.28102115 -0.082293026 -0.05984546 -0.075574495 -0.16382052 0.031777285 0.07862724 -0.3193949
-0.10146379 -0.017463583 -0.17338677 0.3588986 0.0066094175 -0.033211086 -0.0073829517 -0.028659426
0.028566586 0.07491765 -0.0833693 -0.22562465 -0.19037792 -0.26701456 -0.11488411 -0.108569644
-0.10649346 -0.083418116 -0.17017013 -0.1014074 0.11059378 -0.3980825 -0.27049252 -0.21718618
-0.10409305 -0.23813029 -0.021646902 0.072264634 -0.041836884 -0.3042103 0.010369846 0.07099153
-0.10961977 0.06485297 0.075804316 -0.05147536 -0.18983021 -0.020703843 -0.14942633 -0.2690943
-0.06992056 -0.1301914 -0.09079272 -0.16202259 -0.11143423 0.105343804 -0.115105145 -0.2102153
-0.04745447 -0.4228789 0.06902528 -0.069064334 -0.059086483 -0.26138833 -0.2849587 0.06924908
-0.21014236 -0.2767989 -0.26871637 -0.21975309 -0.22430627 -0.17552163 -0.0415997 -0.13634023
0.1112393 0.0036429998 -0.100677684 -0.10078215 0.103279255 -0.003960949 0.047260787 -0.14480698
-0.05878313 -0.17528346 -0.024606138 -0.070869654 0.08705978 -0.0935797 -0.07125766 -0.04563307
0.22836831 -0.19396204 -0.25263646 -0.15209311 -0.3022503 -0.2012668 -0.17461562 -0.1267019
-0.2096824 -0.21476008 -0.06781828 0.1324937 0.14086398 -0.032427125 0.07542229 -0.34655476
-0.17269789 -0.006638318 -0.17432842 0.050221793 -0.15826681 -0.09752875 0.2107937 -0.45647436
-0.005711086 0.09949473 0.1296444 -0.1942683 -0.047073197 -0.11430512 -0.24619232 -0.30078188
-0.20816284 -0.28860894 -0.19479512 -0.047535367 -0.1707113 -0.20414582 -0.14720248 0.045110084
00000000: 01e2 8f3e 3f89 a8bd 8320 75bd cdc6 9abd
00000010: 91c0 27be e628 023d 5207 a13d ba87 a3be
00000020: 3fcc cfbd ca0f 8fbc 4d8c 31be 8fc1 b73e
00000030: d093 d83b 5908 08bd b0ec f1bb 2cc7 eabc
00000040: 7904 ea3c 6d6e 993d 86bd aabd 260a 67be
00000050: 6ef2 42be 22b6 88be 5c48 ebbd c359 debd
00000060: 3e19 dabd 1ed7 aabd 1441 2ebe afae cfbd
00000070: fe7e e23d 78d1 cbbe ff7d 8abe 0e66 5ebe
00000080: bd2e d5bd 6dd8 73be d854 b1bc 7bff 933d
00000090: 275d 2bbd 74c1 9bbe 49e6 293c 0264 913d
000000a0: 5480 e0bd a2d1 843d 4b3f 9b3d d4d7 52bd
000000b0: da62 42be 1b9b a9bc 3703 19be bac6 89be
000000c0: 8332 8fbd e550 05be 89f1 b9bd 40e9 25be
000000d0: a137 e4bd 7ebe d73d 3fbc ebbd ae42 57be
000000e0: 9e5f 42bd 9583 d8be 205d 8d3d 9a71 8dbd
000000f0: ab04 72bd b1d4 85be 1be6 91be 76d2 8d3d
00000100: 8f2f 57be 96b8 8dbe 3195 89be f406 61be
00000110: 8bb0 65be f1bb 33be 7264 2abd c69c 0bbe
00000120: 6ed1 e33d 65bf 6e3b 1a30 cebd df66 cebd
00000130: 1384 d33d d9ca 81bb 8794 413d 4848 14be
00000140: 94c6 70bd 827d 33be d092 c9bc 1c24 91bd
00000150: 664c b23d b7a6 bfbd 89ef 91bd bee9 3abd
00000160: 62d9 693e fc9d 46be 9159 81be 4cbe 1bbe
00000170: 8dc0 9abe e218 4ebe 70ce 32be 25be 01be
00000180: fcb6 56be 11ea 5bbe 4fe4 8abd 6eac 073e
00000190: a63e 103e 4ed2 04bd 0077 9a3d a06f b1be
000001a0: b7d7 30be 3f86 d9bb 2683 32be 5eb5 4d3d
000001b0: b210 22be 27bd c7bd 4eda 573e 02b7 e9be
000001c0: 1024 bbbb e5c3 cb3d 80c1 043e 45ee 46be
000001d0: d3cf 40bd ce18 eabd d719 7cbe 1500 9abe
000001e0: a428 55be 8dc4 93be 5f78 47be 72b4 42bd
000001f0: f1ce 2ebe 9a0b 51be 3fbc 16be 5ac5 383d

weight f4 [128]
0.9969219 1.038939 0.77301306 0.8021226 1.0124696 1.0513781 0.84364504 0.9359719
1.0714738 0.83910125 0.91501987 0.9746643 0.86479855 0.8396476 0.9386849 0.9118294
0.8503322 1.2074211 0.90008265 1.0219522 1.0635626 1.0824364 0.73210317 0.8757845
1.0176938 0.9472803 1.1406728 1.0120314 0.9393526 0.8626975 0.918816 1.1024073
0.9633653 0.96519226 1.0229434 1.0534264 0.95546836 0.82617575 0.9942955 1.1282346
0.91731024 1.3489265 0.826839 0.90852976 0.9887705 1.1146253 1.087016 0.8320473
0.9326322 0.88539255 1.0708139 1.0027318 1.0650892 0.85556906 0.8907399 0.9270679
1.0741644 0.9232405 0.8811918 0.928797 0.7202315 1.1464769 0.7409431 0.8905067
0.89563113 0.92860633 1.154662 0.89680827 0.9195577 1.0917134 0.7491502 0.9367434
1.0368315 0.99855274 0.9034107 1.0718446 0.81525683 0.90455306 0.88703156 0.99201816
0.7293493 1.0025061 1.0726064 0.93459874 0.7628333 0.87904817 0.99855244 1.1786572
1.1115191 0.84314775 0.934497 1.1805538 0.93364435 0.8992535 1.0273142 1.005822
0.98110986 1.1687582 0.793457 1.2633303 0.9168249 0.87018245 0.7810245 1.0218911
0.8252744 0.9387417 1.1768491 1.1476203 0.8606981 0.6594742 0.85568935 1.0681598
0.7639579 0.9933273 0.9891885 1.0466396 0.8908259 0.945576 1.0125914 1.0512954
0.9617498 1.3736187 1.1491154 1.0619646 1.0859952 0.86249316 1.1543005 1.0411083
00000000: 4636 7f3f f4fb 843f 2fe4 453f e857 4d3f
00000010: 9b98 813f 8f93 863f 1ff9 573f db9b 6f3f
00000020: 0e26 893f 57cf 563f be3e 6a3f 9983 793f
00000030: 7063 5d3f 25f3 563f a74d 703f a76d 693f
00000040: 5faf 593f c68c 9a3f d16b 663f 54cf 823f
00000050: d222 883f 478d 8a3f 1d6b 3b3f 6a33 603f
00000060: ca43 823f f680 723f 9101 923f 3f8a 813f
00000070: 6979 703f bed9 5c3f 8637 6b3f af1b 8d3f
00000080: 1c9f 763f d716 773f cfef 823f add6 863f
00000090: 9399 743f 4180 533f 268a 7e3f fe69 903f
000000a0: d8d4 6a3f a0a9 ac3f b9ab 533f 6895 683f
000000b0: 1020 7d3f 0bac 8e3f 5723 8b3f 0d01 553f
000000c0: fcc0 6e3f 16a9 623f 6e10 893f 8459 803f
000000d0: d854 883f 9306 5b3f 8807 643f 5254 6d3f
000000e0: 387e 893f 7d59 6c3f c995 613f a4c5 6d3f
000000f0: 1761 383f c1bf 923f 72ae 3d3f 3ff8 633f
00000100: 1548 653f 25b9 6d3f f7cb 933f 3a95 653f
00000110: 2268 6b3f 44bd 8b3f 4fc8 3f3f 6ace 6f3f
00000120: e5b6 843f 27a1 7f3f ec45 673f 3432 893f
00000130: acb4 503f ca90 673f 8014 633f e7f4 7d3f
00000140: a3b6 3a3f 1f52 803f 2b4b 893f dd41 6f3f
00000150: 0b49 433f 4d09 613f 22a1 7f3f 3dde 963f
00000160: 4246 8e3f 88d8 573f 323b 6f3f 631c 973f
00000170: 5103 6f3f 7a35 663f 087f 833f c6be 803f
00000180: 042a 7b3f de99 953f ff1f 4b3f cfb4 a13f
00000190: 09b5 6a3f 47c4 5e3f 39f1 473f 54cd 823f
000001a0: 2f45 533f 6051 703f fea2 963f 39e5 923f
000001b0: b656 5c3f 4dd3 283f 750e 5b3f 76b9 883f
000001c0: bf92 433f b34a 7e3f 753b 7d3f 49f8 853f
000001d0: 2b0d 643f 4511 723f 989c 813f d990 863f
000001e0: 3c35 763f bdd2 af3f 3716 933f 75ee 873f
000001f0: e401 8b3f 5acc 5c3f 1ec0 933f 0943 853f

bias f4 [128]
0.17226596 -0.07805588 0.026054885 0.13462372 -0.0007014886 0.16682805 0.016616225 -0.056597292
0.080127716 -0.08930554 0.079190984 0.15675518 -0.18969423 -0.17763582 0.09339127 0.042214133
0.051099773 -0.086893834 0.29910174 0.0013801843 0.22737214 -0.08950221 -0.10344796 0.082804024
0.13489233 -0.13351837 -0.01914428 0.12511605 0.059364654 -0.12837906 0.1776839 0.109631486
-0.05750105 0.121751115 0.20566143 -0.15792282 0.09220359 0.072167836 0.021302734 0.04619895
0.07255866 0.15031435 0.020683283 0.040257514 0.11518207 -0.017234838 0.06271246 0.1855944
-0.034109093 -0.034483258 0.23286414 -0.055193726 -0.11021964 0.1586722 -0.037079886 0.06418619
0.10693346 -0.09001051 -0.05513939 -0.028148688 0.26015884 -0.11600179 -0.19191273 0.11458452
0.033857975 0.19756192 0.04364801 0.08305226 -0.025168272 0.08415136 -0.08099798 0.13904698
0.12788065 -0.13587427 0.27018777 -0.19844581 -0.023837117 0.060435172 0.14143784 0.17728585
-0.030628141 0.036175128 0.1018884 -0.16500944 0.065661065 0.08429536 0.12853032 0.20706265
-0.017629607 0.31417376 -0.2869992 0.020937033 0.085426815 0.07179792 0.13052212 -0.09984917
0.093010776 -0.04977338 0.14467867 -0.05982662 0.011466261 0.07442728 0.086938314 0.068665914
0.094001055 0.09208044 -0.00042227408 -0.008275074 0.052418727 -0.08020767 -0.016171698 -0.1381722
-0.09474712 0.00032045715 -0.10053796 0.013440132 0.13942814 -0.080290556 -0.07777019 -0.12472384
0.17064148 0.17452058 -0.02753624 0.018733898 -0.036333203 0.0041494747 -0.13331991 0.16995531
00000000: 7d66 303e c3db 9fbd 0e71 d53c cdda 093e
00000010: 1ae4 37ba f9d4 2a3e c01e 883c 90d2 67bd
00000020: 001a a43d d3e5 b6bd e22e a23d 6e84 203e
00000030: 343f 42be 2ae6 35be ec43 bf3d bae8 2c3d
00000040: ff4d 513d 65f5 b1bd dd23 993e 4de7 b43a
00000050: 3ed4 683e ef4c b7bd 86dc d3bd 2895 a93d
00000060: 3721 0a3e 0ab9 08be 77d4 9cbc 6c1e 003e
00000070: 5a28 733d cd75 03be c5f2 353e 7986 e03d
00000080: 3986 6bbd a658 f93d e998 523e 85b6 21be
00000090: 3cd5 bc3d bbcc 933d 1283 ae3c 1c3b 3d3d
000000a0: a299 943d 01ec 193e fd6f a93c 10e5 243d
000000b0: 94e4 eb3d 1330 8dbc 646f 803d 750c 3e3e
000000c0: fab5 0bbd 513e 0dbd f073 6e3e d112 62bd
000000d0: d6ba e1bd f77a 223e 14e1 17bd 0d74 833d
000000e0: eeff da3d 6e57 b8bd d7d9 61bd 1498 e6bc
000000f0: 8a33 853e 5992 edbd c584 44be 4aab ea3d
00000100: a9ae 0a3d ac4d 4a3e 41c8 323d 4e17 aa3d
00000110: b12d cebc 8c57 ac3d 45e2 a5bd 5562 0e3e
00000120: 25f3 023e a022 0bbe 0d56 8a3e 6135 4bbe
00000130: 0f46 c3bc df8a 773d 15d5 103e 6c8a 353e
00000140: dee7 fabc 5f2c 143d deaa d03d 3cf8 28be
00000150: 4f79 863d 0ca3 ac3d 749d 033e 3b08 543e
00000160: f76b 90bc 62db a03e 8ff1 92be 2484 ab3c
00000170: 41f4 ae3d ca0a 933d 97a7 053e b97d ccbd
00000180: 6f7c be3d 2cdf 4bbd a526 143e c20c 75bd
00000190: fcdc 3b3c 546d 983d b70c b23d b7a0 8c3d
000001a0: a083 c03d ab94 bc3d ab64 ddb9 2d94 07bc
000001b0: 05b5 563d eb43 a4bd 827a 84bc 037d 0dbe
000001c0: c70a c2bd 0803 a839 d9e6 cdbd 0034 5c3c
000001d0: 40c6 0e3e 606f a4bd fa45 9fbd 366f ffbd
000001e0: a4bc 2e3e 86b5 323e ae93 e1bc d577 993c
000001f0: 20d2 14bd 51f8 873b 0485 08be c408 2e3e

running_mean f4 [128]
0.8396798 0.44679567 0.3214426 0.42768696 0.20651194 0.49029982 0.5770972 0.36348227
0.2991827 0.47128865 0.333246 0.50029886 0.5202107 0.47775418 0.6201142 0.5004205
0.57618344 0.5182364 0.47059134 0.27140146 0.43928248 0.25394145 0.5230098 0.5564898
0.4639168 0.46203887 0.48872328 0.4434428 0.5049734 0.15934502 0.282132 0.29152918
0.39598188 0.32971764 0.45674196 0.5142331 0.4447753 0.40929565 0.54710954 0.542317
0.46511343 0.5860336 0.47722208 0.38271177 0.6057991 0.54901624 0.24192932 0.36833194
0.5321169 0.43159896 0.52186644 0.3640532 0.45746526 0.42076463 0.39551932 0.37150085
0.46226805 0.33377412 0.5593516 0.4246323 0.48059675 0.37492338 0.24064139 0.45003775
0.3533425 0.22318688 0.30272993 0.43566862 0.3503972 0.34543028 0.54326075 0.33574334
0.49438155 0.4671923 0.44000542 0.39581165 0.5983119 0.49150866 0.36536843 0.4025136
0.38874128 0.2560437 0.5646645 0.3417045 0.53564996 0.32273614 0.4917105 0.44381613
0.597642 0.38610092 0.49218667 0.46070498 0.3207497 0.36296308 0.2656289 0.40355727
0.37644836 0.5985126 0.4686265 0.49785173 0.49016348 0.42440435 0.48053715 0.2700724
0.28905508 0.46686336 0.43594688 0.606014 0.24851014 0.42512128 0.5718772 0.24755983
0.38799855 0.5882019 0.4963739 0.36163852 0.51406115 0.44642556 0.46567297 0.21079573
0.50561774 0.26777118 0.50777435 0.46985564 0.5034207 0.37427765 0.4142158 0.52839375
00000000: 41f5 563f 67c2 e43e 2094 a43e c9f9 da3e
00000010: de77 533e 9408 fb3e a4bc 133f 591a ba3e
00000020: 7a2e 993e bf4c f13e 389f aa3e 9613 003f
00000030: 872c 053f 329c f43e cebf 1e3f 8f1b 003f
00000040: c280 133f 24ab 043f 59f1 f03e 22f5 8a3e
00000050: a2e9 e03e 9d04 823e f8e3 053f 1e76 0e3f
00000060: 8186 ed3e 5c90 ec3e f039 fa3e ef0a e33e
00000070: f045 013f 572b 233e 9b73 903e 5043 953e
00000080: 23be ca3e c0d0 a83e 15da e93e c8a4 033f
00000090: 97b9 e33e 338f d13e 5f0f 0c3f 49d5 0a3f
000000a0: 5923 ee3e 4c06 163f 7456 f43e ccf2 c33e
000000b0: a615 1b3f 548c 0c3f 52bc 773e 0196 bc3e
000000c0: d038 083f 8afa dc3e 0a99 053f 2e65 ba3e
000000d0: e338 ea3e 766e d73e 8281 ca3e 5c35 be3e
000000e0: 66ae ec3e 71e4 aa3e ab31 0f3f 6869 d93e
000000f0: c710 f63e f5f5 bf3e b26a 763e 596b e63e
00000100: 4fe9 b43e 1a8b 643e 6bff 9a3e f50f df3e
00000110: 4367 b33e 3ddc b03e 2313 0b3f 8de6 ab3e
00000120: 941f fd3e d433 ef3e 6448 e13e d3a7 ca3e
00000130: f82a 193f 06a7 fb3e 9211 bb3e 4316 ce3e
00000140: 1909 c73e 2918 833e da8d 103f e4f3 ae3e
00000150: 5b20 093f ac3d a53e 7bc1 fb3e de3b e33e
00000160: 11ff 183f 05af c53e e4ff fb3e 86e1 eb3e
00000170: 4e39 a43e 4cd6 b93e 8300 883e 0f9f ce3e
00000180: d7bd c03e 1f38 193f d0ef ef3e 6ce6 fe3e
00000190: b5f6 fa3e 874b d93e f708 f63e ee46 8a3e
000001a0: 07ff 933e b708 ef3e 6e34 df3e bc23 1b3f
000001b0: 7179 7e3e 7fa9 d93e 8b66 123f 5380 7d3e
000001c0: bfa7 c63e 6694 163f b824 fe3e af28 b93e
000001d0: 8399 033f e491 e43e b06c ee3e d6da 573e
000001e0: 2a70 013f 4e19 893e 80fd 013f eb90 f03e
000001f0: 2ee0 003f 52a1 bf3e 1814 d43e d044 073f

running_var f4 [128]
0.8955705 0.43989575 0.29336852 0.40171987 0.16811807 0.44637683 0.48007774 0.39999837
0.25075597 0.6200042 0.30709955 0.39936188 0.5666484 0.43887475 0.9405635 0.5080209
0.53560656 0.49220344 0.62206244 0.3638941 0.6200834 0.28366068 0.67687446 0.49767578
0.5641239 0.41145524 0.6792381 0.5904586 0.5049136 0.114650644 0.3287852 0.31222373
0.49086767 0.30439547 0.45805627 0.5657746 0.5591138 0.5958191 0.70810175 0.57667595
0.543445 0.9443476 0.46323842 0.4431523 0.92605066 0.73642975 0.23249865 0.49235058
0.74341065 0.35566804 0.7846489 0.35530815 0.5470847 0.46820682 0.4105462 0.46559343
0.44021946 0.3813338 0.52838445 0.48295414 0.4546785 0.51195097 0.31922287 0.47627467
0.36087167 0.20373315 0.37443346 0.6042005 0.36138138 0.28325996 0.71083915 0.43248457
0.44693428 0.56933916 0.48461634 0.34460723 0.6911464 0.59845835 0.41688922 0.54246044
0.37650672 0.2599797 0.49528334 0.2691973 0.5742955 0.23989111 0.81322837 0.44163853
0.61813724 0.61314076 0.5309393 0.5698765 0.3534338 0.26032266 0.23656143 0.4116895
0.5501092 0.90407705 0.6695063 0.5380511 0.39036006 0.37700528 0.45167053 0.31746697
0.24355991 0.37372026 0.5633452 0.8638951 0.18780056 0.4752928 0.5902235 0.32635286
0.26674023 0.7234226 0.66182303 0.5324712 0.75844705 0.5572912 0.49720904 0.16510507
0.4822057 0.30675632 0.5137272 0.5543015 0.7329926 0.35968706 0.5967855 0.5797333
00000000: 1c44 653f 043a e13e 6634 963e 3aae cd3e
00000010: 2527 2c3e 818b e43e c0cc f53e 96cc cc3e
00000020: 1663 803e 98b8 1e3f 273c 9d3e 2979 cc3e
00000030: df0f 113f 31b4 e03e c5c8 703f a80d 023f
00000040: 831d 093f 1702 fc3e 7c3f 1f3f 5450 ba3e
00000050: c9bd 1e3f f93b 913e a547 2d3f 5ccf fe3e
00000060: 6d6a 103f 43aa d23e 8ce2 2d3f 4b28 173f
00000070: 0542 013f f5cd ea3d 8956 a83e cadb 9f3e
00000080: 0253 fb3e b9d9 9b3e 5a86 ea3e 9bd6 103f
00000090: 1522 0f3f 9a87 183f 2846 353f 09a1 133f
000000a0: 361f 0b3f c4c0 713f 962d ed3e dce4 e23e
000000b0: a811 6d3f a986 3c3f 2014 6e3e 6015 fc3e
000000c0: 2950 3e3f 1f1a b63e c0de 483f f3ea b53e
000000d0: be0d 0c3f ceb8 ef3e 1d33 d23e 4362 ee3e
000000e0: 7264 e13e 2f3e c33e 3444 073f c445 f73e
000000f0: 9fcb e83e 380f 033f 2e71 a33e 46da f33e
00000100: 2cc4 b83e 6c9f 503e beb5 bf3e e2ac 1a3f
00000110: fb06 b93e 7307 913e 8ef9 353f 9e6e dd3e
00000120: 92d4 e43e 36c0 113f a21f f83e 5c70 b03e
00000130: f8ee 303f 9134 193f 8172 d53e b0de 0a3f
00000140: 7dc5 c03e 0f1c 853e c795 fd3e 3ad4 893e
00000150: 0805 133f 04a6 753e bc2f 503f 721e e23e
00000160: 3e3e 1e3f cbf6 1c3f a3eb 073f 6de3 113f
00000170: 46f5 b43e 0349 853e 293d 723e f7c8 d23e
00000180: f5d3 0c3f 9871 673f c464 2b3f b8bd 093f
00000190: 46dd c73e d606 c13e 5c41 e73e 088b a23e
000001a0: c567 793e 4358 bf3e 6437 103f 3b28 5d3f
000001b0: ca4e 403e 9459 f33e e318 173f b917 a73e
000001c0: 2d92 883e 3932 393f 3c6d 293f 0850 083f
000001d0: 9629 423f a3aa 0e3f 2f92 fe3e 4e11 293e
000001e0: aae3 f63e 2a0f 9d3e a083 033f b4e6 0d3f
000001f0: 67a5 3b3f e728 b83e efc6 183f 6769 143f

weight f4 [58, 128]
-0.20886478 -0.11296345 -0.1428948 -0.10986611 0.018830419 -0.018783916 -0.08411606 -0.09077068
-0.23650868 0.10423788 -0.08410464 -0.20610514 -0.062183604 -0.012271537 -0.055311333 0.07302525
0.05987201 0.00080384646 0.10082145 0.10970921 -0.024978394 0.17101721 -0.03389493 0.0054832376
0.090145394 0.18601729 0.06252304 -0.0855673 -0.09443617 -0.04688716 -0.07426348 -0.011510564
-0.17413782 0.030109644 -0.11413306 -0.19874786 -0.1417939 0.048030812 -0.098481745 0.10941357
-0.12408709 0.24236189 -0.023549264 -0.023885058 -0.06941866 0.12374702 -0.17510004 -0.32650936
0.2304986 0.23500155 0.015537887 0.0867365 0.119544156 -0.09561263 0.18589514 -0.07773573
-0.012430717 0.16957791 -0.13896842 0.021211075 -0.09665906 0.10088476 -0.043588247 -0.15170564
0.24988817 0.050452664 -0.0032611077 -0.12186141 0.09538071 -0.2119391 0.024054255 -0.14371957
0.05366908 0.034254536 0.050232816 0.19548963 0.083577 -0.1609975 0.0105363345 -0.22881886
0.024785493 0.095589705 0.013439639 0.1344183 -0.13495718 -0.1596052 0.1899014 0.058690045
0.040180735 -0.19892032 0.051376123 0.20892905 -0.15398026 -0.07280835 -0.08485703 -0.19418754
0.0597179 0.091580845 -0.11185675 -0.17568713 -0.043386817 0.00014129834 -0.009024982 -0.07976439
-0.10905338 0.080068894 0.123981774 -0.0635525 -0.036734182 0.0026108928 -0.21555793 0.12613022
0.0010666822 0.123063184 -0.08314732 0.007088967 -0.050542086 0.1756899 -0.058986284 0.06625726
-0.12222729 -0.08498442 0.078863226 0.03184362 0.13910507 0.12846917 0.08535031 -0.13412784
0.17944986 0.28454542 0.089891665 -0.03304353 -0.19837458 0.09645701 0.07557145 -0.049353085
-0.0014542378 -0.11418313 -0.037833206 -0.12950744 -0.102924064 -0.041433115 -0.2141661 -0.013424673
-0.2046671 0.06009728 0.15611707 0.06817586 -0.0063289423 0.03486246 -0.0057489113 0.044649303
-0.10885633 0.12188066 0.05928618 0.21576378 -0.126646 -0.061511036 -0.0833063 -0.1688703
-0.018893799 -0.19454978 0.0649833 0.010745957 0.23020746 -0.057618577 0.2541822 -0.14871381
0.10132782 -0.18926975 -0.21033622 -0.043561086 0.26312408 -0.08090765 -0.18610027 -0.17397077
-0.11221688 -0.19819331 -0.27066872 -0.019430667 0.0065893144 -0.1580083 0.061555292 0.04096675
-0.23709081 -0.040119037 0.1477562 0.13875164 -0.18791538 -0.12914506 0.078543596 -0.03126607
-0.13562673 -0.25563225 -0.06330786 0.12412529 -0.073593736 0.017544817 0.04631266 -0.1268602
-0.13792038 -0.06696204 0.0037745766 -0.006790794 -0.110381134 -0.11193184 0.10127142 0.2170989
-0.008168049 -0.4553715 0.053398076 -0.07490906 -0.029080907 0.03796079 -0.017137827 -0.20703295
0.13404508 0.0011384838 0.105760254 -0.08581501 -0.013118684 0.1735648 -0.24246204 0.015063392
-0.019662132 0.101848476 -0.09508628 -0.29999983 0.2470736 0.100675836 -0.22711284 -0.07767444
-0.084224254 0.079601005 0.07105606 -0.10482968 -0.39405608 -0.017988803 -0.28391933 0.016205408
-0.055059858 -0.08308414 0.10175462 0.04432709 -0.11553284 -0.052835427 0.14589371 0.1051528
-0.0872282 -0.19438724 0.059697 -0.15077126 0.069568075 -0.036771342 -0.23743986 0.12123218
00000000: a6e0 55be 6259 e7bd 0453 12be 7c01 e1bd
00000010: 4042 9a3c bae0 99bc 0a45 acbd fae5 b9bd
00000020: 552f 72be ab7a d53d 0e3f acbd 3a0d 53be
00000030: 3cb4 7ebd 8f0e 49bc 238e 62bd 438e 953d
00000040: 5a3c 753d 39b9 523a 7a7b ce3d 39af e03d
00000050: 7d9f ccbc 231f 2f3e 69d5 0abd bbac b33b
00000060: 269e b83d 517b 3e3e 140c 803d e93d afbd
00000070: c067 c1bd c00c 40bd 7417 98bd ce96 3cbc
00000080: 2f51 32be 80a8 f63c 98be e9bd 8f84 4bbe
00000090: 6c32 11be f5bb 443d ccb0 c9bd 3914 e03d
000000a0: 5f21 febd b72d 783e 63ea c0bc 99aa c3bc
000000b0: 5f2b 8ebd 146f fd3d 6d4d 33be 3c2c a7be
000000c0: d307 6c3e 3fa4 703e 9f92 7e3c e8a2 b13d
000000d0: 91d3 f43d 8ed0 c3bd 4c5b 3e3e e933 9fbd
000000e0: 35aa 4bbc d5a5 2d3e bd4d 0ebe d9c2 ad3c
000000f0: 2ff5 c5bd ab9c ce3d 9789 32bd b958 1bbe
00000100: afe2 7f3e 74a7 4e3d 4fb8 55bb 7a92 f9bd
00000110: f656 c33d 9006 59be 6e0d c53c 392b 13be
00000120: 1cd4 5b3d 7c4e 0c3d edc0 4d3d 6f2e 483e
00000130: 6b2a ab3d 87dc 24be 97a0 2c3c 7e4f 6abe
00000140: f20a cb3c 89c4 c33d ee31 5c3c f3a4 093e
00000150: 3732 0abe 8c6f 23be 8375 423e f964 703d
00000160: 8e94 243d c5b1 4bbe c56f 523d 7ff1 553e
00000170: 00ad 1dbe 8b1c 95bd 86c9 adbd 19d9 46be
00000180: c29a 743d bd8e bb3d 2715 e5bd 54e7 33be
00000190: 60b6 31bd 7c29 1439 85dd 13bc 835b a3bd
000001a0: 6157 dfbd 29fb a33d 28ea fd3d d027 82bd
000001b0: 9576 16bd 831b 2b3b 38bb 5cbe 4828 013e
000001c0: eacf 8b3a 8d08 fc3d 2449 aabd 914a e83b
000001d0: 3805 4fbd 0ee8 333e 9a9b 71bd e3b1 873d
000001e0: 4d52 fabd 500c aebd 0b83 a13d 756e 023d
000001f0: 8f71 0e3e 6c8d 033e 25cc ae3d cf58 09be
00000200: b4c1 373e f0af 913e 1f19 b83d a758 07bd
00000210: b522 4bbe 418b c53d 34c5 9a3d 7626 4abd
00000220: 209c beba d8d8 e9bd fef6 1abd 999d 04be
00000230: dac9 d2bd c5b5 29bd 5c4e 5bbe 29f3 5bbc
00000240: 4194 51be 9128 763d 27dd 1f3e c99f 8b3d
00000250: 0463 cfbb f0cb 0e3d 5d61 bcbb 30e2 363d
00000260: 11f0 debd 919c f93d 11d6 723d 2ef1 5c3e
00000270: 7daf 01be fff2 7bbd 7e9c aabd 56ec 2cbe
00000280: 2bc7 9abc 0f38 47be f715 853d cf0f 303c
00000290: 81bb 6b3e 7501 6cbd 2b24 823e 6f48 18be
000002a0: f684 cf3d eecf 41be 6162 57be 1c6d 32bd
000002b0: 33b8 863e e9b2 a5bd 1291 3ebe 6525 32be
000002c0: f7d1 e5bd 30f3 4abe 1795 8abe 102d 9fbc
000002d0: 2deb d73b eecc 21be 6721 7c3d c0cc 273d
000002e0: efc7 72be dc53 24bd 674d 173e e914 0e3e
000002f0: e46c 40be 9a3e 04be 77db a03d da10 00bd
00000300: bce1 0abe 3be2 82be 8da7 81bd 6635 fe3d
00000310: 50b8 96bd 26ba 8f3c 58b2 3d3d a4e7 01be
00000320: 003b 0dbe 6523 89bd e35e 773b 4f85 debb
00000330: 810f e2bd 853c e5bd 6467 cf3d 2d4f 5e3e
00000340: 48d3 05bc 7426 e9be f1b7 5a3d ec69 99bd
00000350: 153b eebc c67c 1b3d a164 8cbc 7200 54be
00000360: 1d43 093e 2d39 953a d598 d83d c8bf afbd
00000370: c0ef 56bc f9ba 313e f847 78be 72cc 763c
00000380: 7b12 a1bc ef95 d03d 98bc c2bd 9499 99be
00000390: dd00 7d3e 222f ce3d 4590 68be c713 9fbd
000003a0: c47d acbd da05 a33d d785 913d f1b0 d6bd
000003b0: b8c1 c9be 415d 93bc e05d 91be 34c1 843c
000003c0: 7286 61bd 0528 aabd ba64 d03d 5390 353d
000003d0: 7b9c ecbd f669 58bd 2965 153e 5a5a d73d
000003e0: b3a4 b2bd 730d 47be d784 743d c863 1abe
000003f0: b579 8e3d 8c9d 16bd 6f23 73be 9448 f83d

bias f4 [58]
-0.12914288 -0.08950988 0.094419375 -0.07007882 0.025151161 -0.15699477 -0.066886164 0.060514137
-0.21867122 0.07230047 0.0031733734 -0.056509774 -0.18803163 0.032398053 0.12489029 -0.2205504
0.032494046 -0.18321827 0.13807964 0.004225094 0.009129162 -0.074957415 -0.2233281 -0.12179782
-0.030506123 -0.18743886 -0.11398675 0.069968164 -0.3016465 0.1323106 -0.032706708 0.20565265
0.13976961 -0.0885888 -0.24287947 0.117027886 -0.037666466 -0.09451384 0.07926485 -0.0044873063
0.13276625 -0.018443115 -0.24744494 -0.026316416 -0.04302046 0.08868257 0.04650832 0.011077075
0.13104093 -0.20635997 -0.09325605 -0.016505145 -0.017165713 -0.0847745 0.074517034 -0.14310129
-0.0018225977 0.111563735
00000000: 083e 04be f550 b7bd f25e c13d 7c85 8fbd
00000010: cf09 ce3c 3dc3 20be 9dfb 88bd acdd 773d
00000020: 59eb 5fbe 4512 943d 5ff8 4f3b cb76 67bd
00000030: 5d8b 40be d2b3 043d 7bc6 ff3d f7d7 61be
00000040: 7a18 053d 929d 3bbe c064 0d3e a872 8a3b
00000050: 7b92 153c 4683 99bd 1fb0 64be 2371 f9bd
00000060: fae7 f9bc f9ef 3fbe e371 e9bd 784b 8f3d
00000070: 6971 9abe 6e7c 073e 78f7 05bd 9c96 523e
00000080: c41f 0f3e 0b6e b5bd 65b5 78be 51ac ef3d
00000090: 2748 1abd 7990 c1bd 9c55 a23d 410a 93bb
000000a0: e0f3 073e 0416 97bc 3562 7dbe 8695 d7bc
000000b0: 3936 30bd 359f b53d 827f 3e3d 9f7c 353c
000000c0: 982f 063e 0750 53be 07fd bebd cc35 87bc
000000d0: 1c9f 8cbc 419e adbd 639c 983d 2589 12be
000000e0: 3be4 eeba 877b e43d

weight f4 [58]
0.9892393 0.90349025 0.7887923 1.0197083 1.0179627 0.89988154 1.0051552 0.68272656
1.0043296 0.9829316 0.90778285 0.8945863 0.76373196 1.0100878 0.80378354 0.6803878
1.1130491 0.8869888 1.054625 0.87970984 0.8682382 0.8086084 0.8890774 0.8305362
1.1200403 0.7926926 1.013093 0.93574995 1.0062044 0.89195377 0.9251623 0.90546256
0.86974806 1.1068393 1.159687 0.87324655 0.68829405 1.1084598 1.0091559 0.78564024
0.8586224 0.94663095 1.0322034 1.0282431 0.82751846 0.89748085 0.8962157 1.0834368
1.0065677 0.9448704 0.7160328 1.0415877 0.77376246 0.952443 0.81827515 0.8547395
1.0900581 0.88278216
00000000: c93e 7d3f 234b 673f 4bee 493f cd85 823f
00000010: 9a4c 823f a35e 663f eda8 803f 2bc7 2e3f
00000020: df8d 803f 68a1 7b3f 7564 683f 9c03 653f
00000030: f083 433f 8f4a 813f c2c4 4d3f e52d 2e3f
00000040: 6578 8e3f b311 633f f4fd 863f aa34 613f
00000050: dc44 5e3f f600 4f3f 949a 633f 059e 543f
00000060: 7b5d 8f3f e7ed 4a3f 08ad 813f 4f8d 6f3f
00000070: 4ecb 803f 1557 643f 70d7 6c3f 65cc 673f
00000080: cfa7 5e3f e9ac 8d3f a070 943f 168d 5f3f
00000090: 0a34 303f 03e2 8d3f 052c 813f b81f 493f
000000a0: adce 5b3f 6856 723f 3e1f 843f 789d 833f
000000b0: 40d8 533f 4ec1 653f 646e 653f 0fae 8a3f
000000c0: 36d7 803f 07e3 713f ed4d 373f bf52 853f
000000d0: 4c15 463f 4ed3 733f 7b7a 513f 35d0 5a3f
000000e0: 0687 8b3f 03fe 613f

bias f4 [58]
0.054134224 0.12406999 0.077769615 -0.076642424 0.17812629 0.04306602 0.11164199 0.06375008
0.084193304 0.05496757 0.14076807 0.09107392 0.0647592 0.085634775 0.07932823 0.10945065
0.05346613 0.06452055 0.024858888 0.13945384 0.091046624 0.094540685 -0.07701939 0.01585715
-0.024930887 0.17048307 -0.03890646 -0.07011496 -0.13013624 0.06374469 -0.042382676 0.0024409336
-0.06652779 0.019171447 -0.057876177 -0.02711844 0.03217049 0.08066965 0.11653446 0.0389733
0.023168566 -0.004080162 -0.025799064 -0.013416983 0.15233982 0.12803175 0.13094324 -0.06545666
0.0736779 -0.001933833 0.15585265 0.09298402 -0.06155529 0.052749045 0.01604308 0.010542047
0.07019584 0.077679984
00000000: d9bb 5d3d 6818 fe3d ad45 9f3d b4f6 9cbd
00000010: bd66 363e ff65 303d 8ea4 e43d 678f 823d
00000020: 8a6d ac3d ad25 613d 8125 103e f784 ba3d
00000030: 79a0 843d 4961 af3d d776 a23d aa27 e03d
00000040: 4dff 5a3d 5a23 843d dea4 cb3c fdcc 0e3e
00000050: a776 ba3d 8c9e c13d 58bc 9dbd dbe6 813c
00000060: dc3b ccbc 1d93 2e3e 615c 1fbd 6f98 8fbd
00000070: 6f42 05be 938c 823d 7599 2dbd 12f8 1f3b
00000080: b93f 88bd 700d 9d3c 920f 6dbd 7e27 debc
00000090: 34c5 033d 2136 a53d 9ea9 ee3d 78a2 1f3d
000000a0: 01cc bd3c e1b2 85bb 8f58 d3bc e8d2 5bbc
000000b0: f8fe 1b3e c11a 033e fc15 063e 240e 86bd
000000c0: 70e4 963d ab78 fdba d697 1f3e 686e be3d
000000d0: 6621 7cbd 620f 583d c76c 833c 8db8 2c3c
000000e0: d6c2 8f3d af16 9f3d

running_mean f4 [58]
0.69697845 0.71623933 0.81847095 0.7137142 0.7661637 0.5725116 0.7955097 0.76098883
0.65172786 1.2199506 0.8390895 0.72400284 0.7723305 0.85774046 0.80337614 0.5806301
0.7230961 0.5550117 1.0872796 1.0006987 0.8117563 0.7598711 0.65926105 0.866665
0.8565862 0.5283883 0.45976627 0.7605073 0.6340849 0.9099141 0.65873224 0.75884265
0.9162486 0.95778203 0.5129667 1.103545 0.6251873 0.70932144 0.74194604 0.7031609
0.9771077 0.7807549 0.7130222 0.73756504 0.5482576 0.8946626 0.8170836 0.913338
0.8286126 0.7791954 0.79066557 0.85487294 0.75923914 0.6675229 0.7998018 0.40055072
0.73254603 0.88026386
00000000: 2e6d 323f 765b 373f 5087 513f f9b5 363f
00000010: 4e23 443f 1f90 123f 86a6 4b3f 2ad0 423f
00000020: a3d7 263f 5727 9c3f 92ce 563f 4058 393f
00000030: 74b7 453f e194 5b3f 0faa 4d3f 2da4 143f
00000040: d31c 393f 3f15 0e3f fa2b 8b3f e516 803f
00000050: 43cf 4f3f ea86 423f 55c5 283f c2dd 5d3f
00000060: 3c49 5b3f 7544 073f 7c66 eb3e 9bb0 423f
00000070: 6353 223f 21f0 683f ada2 283f 8343 423f
00000080: 458f 6a3f 3431 753f c951 033f f640 8d3f
00000090: 460c 203f 1796 353f 2df0 3d3f 5a02 343f
000000a0: bb23 7a3f 8edf 473f 9f88 363f 10d1 3c3f
000000b0: 9c5a 0c3f 9c08 653f 642c 513f 85d0 693f
000000c0: f51f 543f 5a79 473f 0f69 4a3f f4d8 5a3f
000000d0: 7f5d 423f c8e2 2a3f d0bf 4c3f fc14 cd3e
000000e0: 2388 3b3f f958 613f

running_var f4 [58]
1.5303407 1.6303034 1.0430413 2.0302444 1.7078896 1.3422155 1.6780912 1.4749918
1.5694481 3.2005973 1.7297684 1.633675 1.5378314 1.5255312 1.3486996 1.1263124
1.3816684 1.0628892 2.7887309 2.7666204 1.521847 1.6644645 1.6423444 2.0085921
2.1102312 1.1553875 1.1237644 1.3191781 1.3745604 1.4509345 1.2108767 1.2259656
1.9686799 2.1971703 1.3687332 2.135593 1.0962867 1.5108694 1.4456425 1.4395249
1.6302872 1.8175132 2.305529 1.2373984 0.8036675 1.8313122 1.9526602 2.9755635
1.6272354 2.044508 1.4813658 2.410703 1.2319634 1.078963 1.8468962 0.67444116
1.5228289 1.940539
00000000: 34e2 c33f c8ad d03f 6182 853f 86ef 0140
00000010: 209c da3f b8cd ab3f b1cb d63f 88cc bc3f
00000020: ade3 c83f 96d6 4c40 0d69 dd3f 431c d13f
00000030: a9d7 c43f 9b44 c33f 30a2 ac3f 012b 903f
00000040: 83da b03f c10c 883f 917a 3240 4f10 3140
00000050: e2cb c23f 2c0d d53f 5738 d23f c68c 0040
00000060: 070e 0740 bde3 933f 83d7 8f3f d4da a83f
00000070: 98f1 af3f 39b8 b93f 02fe 9a3f 71ec 9c3f
00000080: b4fd fb3f 709e 0c40 a632 af3f 8ead 0840
00000090: 1f53 8c3f 2b64 c13f d00a b93f 5a42 b83f
000000a0: 40ad d03f 46a4 e83f ca8d 1340 1263 9e3f
000000b0: 27bd 4d3f 7068 ea3f c5f0 f93f a26f 3e40
000000c0: 4049 d03f 38d9 0240 659d bd3f f548 1a40
000000d0: fab0 9d3f 761b 8a3f 1867 ec3f 2da8 2c3f
000000e0: 0fec c23f 9563 f83f
